Custom_CNN/Custom_CNN.pt (torch, 211501 bytes, 8 tensors)

conv1.weight f4 [6, 3, 5, 5]
000000 a2 2a 86 3d 6d 03 d9 bd bc e0 5a bd 14 30 2f 3e
       0.065511 -0.105963565 -0.05343698 0.17108184
000010 bd 81 93 3e ed a7 19 be ab 48 4f be e3 75 7f be
       0.2880992 -0.15005465 -0.20242564 -0.24947314
000020 3e e5 09 be e2 f9 1b be 58 06 33 be c8 81 98 be
       -0.13466355 -0.15232041 -0.17482889 -0.29786515
000030 b6 b0 bd be fa ca 4f be ba 83 bd bc 42 1b 92 be
       -0.37048882 -0.20292273 -0.023134101 -0.2853642
000040 8b a6 a3 be 3f 46 80 be 26 6d 00 be 65 85 19 be
       -0.31963 -0.25053594 -0.12541637 -0.14992292
000050 94 01 e7 bd 31 37 b5 be ef 39 92 be af 17 3b ba
       -0.11279598 -0.3539367 -0.28559825 -0.0007137013
000060 9e 4b 17 bd 6f 0b 84 bc a4 61 0d be f1 8b a7 3c
       -0.03693735 -0.016118733 -0.13806778 0.020452471
000070 30 26 e3 3b 9d f4 9b 3d 75 f5 29 bd d4 9c c2 bd
       0.0069320425 0.07615016 -0.04149385 -0.09502569
000080 2e 73 48 be ae ba 82 3d 40 ff f6 bb 8e 6c 3c 3e
       -0.19575188 0.063832626 -0.0075377524 0.18400785
000090 e1 ff 7a 3b 8b 0a 02 3e bb f1 4d 3e ae ec 60 3d
       0.0038299488 0.12699334 0.20111744 0.054913215
0000a0 3d 5e 07 3e ca af 22 3e 05 00 8d 3e d5 66 b3 3d
       0.13219543 0.1588737 0.27539077 0.08759848
0000b0 4e 9d ce bc 6d d3 a1 3b 07 81 a4 bc 75 60 58 be
       -0.025221493 0.004938534 -0.020081056 -0.21130545
0000c0 aa ce 60 bd bc 70 97 be 24 05 06 3d 2a 3a ed bc
       -0.05488459 -0.29578197 0.032719746 -0.028958399
0000d0 42 4e 9f bb 47 b1 2d 3e e1 45 ae 3d ae 58 48 bd
       -0.004861624 0.16962157 0.08509422 -0.048912697
0000e0 58 99 31 3b bc a2 a2 3d 6f c2 5f 3d 80 f0 da bc
       0.0027099457 0.07941195 0.054628786 -0.026726007
0000f0 82 a1 af 3e bd 74 90 3e cb 90 dc 3e be 9b 08 3f
       0.34302908 0.28214064 0.43079218 0.53362644
000100 f4 a1 96 3e 73 88 d1 3e 69 75 a9 3e dc 03 cc 3e
       0.29420435 0.40924415 0.3309739 0.39846694
000110 fe 95 ed 3e fd 3e bb bc 8d 7d 27 3e cb 63 e9 3d
       0.46403497 -0.022857184 0.16356488 0.11395987
000120 84 b8 4c bd c2 e4 79 bd 09 c3 1d be af ea a6 3d
       -0.049980655 -0.061009176 -0.15406431 0.08150231
000130 e9 44 14 bd b9 95 8f bd 15 5b 57 3e 1a 1d 4e bd
       -0.03619853 -0.07010979 0.21030839 -0.050320722
000140 90 80 40 3e 72 94 eb bd 1e 09 ba be 13 73 f8 3e
       0.18799043 -0.11502923 -0.3633508 0.48525295
000150 fc 19 8f be d2 63 74 3e 75 2c ac be 86 d7 34 bf
       -0.27949512 0.23866203 -0.33627668 -0.7064136
000160 b1 dd 40 3f 5f ce ff be 97 a2 a9 3e dc 67 a7 3e
       0.75338274 -0.49962136 0.3313186 0.32696426
000170 62 f5 de be e4 f1 70 3f a8 b6 52 be 7f 3b 59 bd
       -0.43546587 0.94119096 -0.2057749 -0.053035256
000180 2c 00 95 be 4d 2d 1d bf c5 a0 ac 3d 19 8d b7 be
       -0.29101694 -0.6139725 0.08429102 -0.35849836
000190 6e bb 5d bd 8f 3f 0a be 69 a5 a2 be 7c 7f 9c 3e
       -0.054133825 -0.13500808 -0.31766823 0.30566013
0001a0 b5 e1 3e bc 23 27 2f 3e 3a 4c 13 be 3e 79 ae be
       -0.011650492 0.17104773 -0.14384547 -0.34076875
0001b0 de f1 19 3f 9b e2 49 be c2 ac 5c 3e 04 96 c9 be
       0.60134685 -0.1971535 0.21550277 -0.39372265
0001c0 7c 34 30 bf a1 fc 76 3f e0 d0 87 be 8b 88 ec 3e
       -0.68830085 0.9647923 -0.26526546 0.46197924
0001d0 65 28 ad 3e 33 c9 7b be 37 32 95 3f ba d3 13 be
       0.3381988 -0.2458847 1.1655949 -0.14436236
0001e0 48 61 5e bd b7 3b 20 3d 83 59 96 be 13 d2 d2 3e
       -0.054291993 0.03911945 -0.29365167 0.411759
0001f0 f5 72 66 be c7 e0 e4 3d 1c b1 08 3e 5f b5 ad bd
       -0.2250479 0.111756854 0.13348812 -0.084818594
000200 b4 72 34 3e 68 3f 6d be ae d1 62 3e 27 ad 7a 3d
       0.17621881 -0.23168719 0.22150299 0.061200287
000210 71 b6 55 be 4a 91 ce 3e 3d 4a e0 be 74 ac 7d 3e
       -0.20870377 0.40345222 -0.4380664 0.24772817
000220 43 39 64 be 37 35 0f bf 8e b7 2e 3f 1d eb 15 bf
       -0.22287469 -0.55940574 0.6824883 -0.5856188
000230 47 a1 7c 3e b5 9f a1 3e 17 9f c1 be b9 ce 37 3f
       0.24670897 0.3156716 -0.37816688 0.7179981
000240 96 ba 8c be 50 19 0c bd 54 f2 0d bd 7a f1 e3 be
       -0.27486104 -0.034203827 -0.03465493 -0.4452017
000250 75 13 45 3e 77 87 9b be c4 47 41 bd d8 5a 38 be
       0.19245704 -0.3037679 -0.04718758 -0.18003404
000260 98 9f a8 be e8 77 9f be fc 85 5d bd d2 f1 85 3d
       -0.3293426 -0.3114617 -0.054082856 0.06540264
000270 b9 1d 05 3e 98 84 12 be f4 03 c0 be d8 be 85 be
       0.1299962 -0.14308393 -0.37503016 -0.26122165
000280 ca b8 2c 3e 0b 5a a7 3e e2 a1 ba 3e ea d8 8f 3d
       0.16867366 0.32685885 0.36451632 0.07023795
000290 28 48 2a bd 09 05 c0 3b 4c b6 98 3e 1f 71 8f 3e
       -0.04157272 0.0058599752 0.2982658 0.28015992
0002a0 8b 26 8a 3e 91 e7 1d 3e 1d b0 7e 3d 52 9d f1 3c
       0.2698253 0.15420367 0.062179673 0.029493961
0002b0 fd 2b 9c 3d 6c 05 19 3e 4d 95 d0 3d 4f c8 17 3d
       0.076255776 0.14943475 0.10184727 0.037056264
0002c0 df e0 38 be c5 c3 60 be 47 ca 5d bd 2d cd 07 3e
       -0.18054532 -0.2194968 -0.054147985 0.13261862
0002d0 d5 e9 44 3d 76 e4 ac 3d 36 97 d2 bd f7 36 dc bd
       0.048074562 0.08442013 -0.102827474 -0.10752671
0002e0 d7 74 e2 bd be fb ab bb a6 07 80 3e 18 1a 6e 3e
       -0.11057442 -0.005248516 0.25005835 0.23252141
0002f0 57 38 1f 3d e8 0b 08 bc b1 f2 18 be fb b4 00 bd
       0.03887209 -0.00830362 -0.1493633 -0.031422596
000300 d7 64 8b 3d 30 c9 59 3d 7e aa d3 bd ef 4e 4f bc
       0.06806343 0.053170383 -0.10335253 -0.012653097
000310 3e 25 5a bc f3 3a 1d 3c 0a 88 9e 3d d5 d8 cb 3a
       -0.013314543 0.009596574 0.07740791 0.0015552292
000320 fa 5c a6 3e f7 7a 0f 3e 28 8f 16 bb 42 c5 42 3d
       0.3249281 0.14011751 -0.0022973511 0.0475514
000330 f1 d7 bc 3c 46 0e ad 3e 01 4d ac 3e 66 e5 9b 3d
       0.023052188 0.33799952 0.336525 0.07612114
000340 81 cf 60 be 74 71 a5 be 34 77 c7 3d 47 0f dc 3e
       -0.21954156 -0.3231312 0.09739533 0.42980406
000350 2d 93 65 3e 49 c1 cc 3c 7c 0a ba be 12 37 9e bd
       0.22419424 0.02499451 -0.36336124 -0.077253476
000360 e0 36 1c 3e f4 c9 8a 3e b0 7b fc 3d 25 6b 1b be
       0.15255308 0.27107203 0.12328279 -0.15177591
000370 3b ab 86 bd 0f 78 32 bd 5d 14 e5 bd b2 c4 0e 3c
       -0.06575628 -0.043571528 -0.111855246 0.008713888
000380 a5 3d 52 be b5 2c 00 3d 2e 33 07 3e bc 20 43 3e
       -0.20531328 0.031292636 0.13203117 0.19055456
000390 58 59 59 3e e6 f4 71 3e 50 4d b9 3d 2a 08 f3 3c
       0.21225488 0.23628578 0.09047949 0.029666979
0003a0 06 00 66 be 76 2a 1a 3e 44 ec 80 3e 58 be 74 3e
       -0.22460946 0.1505526 0.25180256 0.23900735
0003b0 9c 99 6f 3e bb 97 1f bf 8c 55 6f 3d 20 ac e5 3e
       0.23398441 -0.623409 0.058431193 0.44857883
0003c0 d8 f9 8b 3e 4f 2b 80 3e 59 99 11 bf 2f a0 37 be
       0.27339053 0.25033042 -0.56874615 -0.17932199
0003d0 cc f5 ef 3e 77 38 d0 3d f2 c0 4a 3d 02 ca 38 be
       0.46867216 0.1016702 0.049500413 -0.1804581
0003e0 67 ad 41 be dd 72 5f 3c 8c be 53 be 84 74 35 be
       -0.18913804 0.013638225 -0.20678157 -0.17720228
0003f0 50 37 82 be 77 e1 ac be 24 b9 25 be cf 4d 23 3e
       -0.25432825 -0.33765766 -0.16183907 0.1594765

conv1.bias f4 [6]
000000 6c e7 0a 3f 6e 5c c2 bd 4d ee 03 3e f0 fd 9c be
       0.5425937 -0.09490286 0.12883873 -0.3066249
000010 9c 12 49 be b8 0c 21 bf
       -0.19636005 -0.6291003

conv2.weight f4 [16, 6, 5, 5]
000000 7c 0c 59 be ef f4 d0 bd df 9e b2 bd fb 24 a5 bd
       -0.21196169 -0.102029674 -0.087217085 -0.08063694
000010 e4 09 ca 3d 72 b5 0b be 02 b7 af bd fd 95 42 be
       0.09865168 -0.13643435 -0.08579828 -0.19002528
000020 15 52 d9 bd 74 2f 92 bd fc 3a c9 bd cf b4 74 3c
       -0.10611359 -0.07137957 -0.098257035 0.014935686
000030 a7 7b 2a be 72 80 01 be 6e b6 5a bc b1 8b b2 bd
       -0.16648732 -0.12646654 -0.013349159 -0.0871805
000040 c8 21 0f be 89 a0 99 bd 86 00 a4 bd c2 e7 72 3d
       -0.1397773 -0.07501323 -0.08007912 0.059303053
000050 c1 a0 31 be 2e 77 43 be 46 70 06 be 26 49 85 bd
       -0.17346479 -0.19088432 -0.13128766 -0.065080926
000060 86 3e e0 bc 77 09 f6 bd 8d 38 ae bd d6 4c e5 bd
       -0.027373563 -0.12013524 -0.0850688 -0.11196296
000070 84 f3 b6 bd 7e 5b a8 bd cf 5b ca 3b 4d 84 40 3d
       -0.08933166 -0.08220576 0.006175495 0.04700117
000080 1c 36 03 3d 3c be 87 bd fd cd 64 bd 7e ed 80 bd
       0.032034025 -0.06628081 -0.05586051 -0.06295298
000090 ce 9c d3 bd 5b f3 5c 3d 2f d4 10 3e 9b 81 87 bb
       -0.103326425 0.05394302 0.14143442 -0.004135323
0000a0 ad 79 ee bd b0 21 a6 3d 5e f0 48 3e dc 58 09 3e
       -0.116443016 0.08111894 0.19622943 0.13412803
0000b0 61 61 da 3d 86 10 26 3d ef 3f a5 3d 43 59 67 3e
       0.10663105 0.0405431 0.08068835 0.22592644
0000c0 29 5e fc 3d b9 f2 3f 3d 7d fa 84 3e ab d7 cf 3d
       0.12322647 0.046862338 0.25972357 0.10148557
0000d0 46 19 99 bd 0c cd 17 be 49 43 96 be c8 f5 95 3e
       -0.07475524 -0.14824313 -0.2934821 0.2928908
0000e0 a0 38 58 3d 02 a7 b3 3c 2a 8e d6 bc 32 9c 03 bd
       0.052788377 0.021930221 -0.026190836 -0.03213138
0000f0 27 ba 57 3e ee f9 bb b8 14 b9 00 be 7c bc 7a be
       0.21067105 -8.963408e-05 -0.12570602 -0.24485964
000100 87 53 c2 3b 20 05 78 3d d3 dc 98 bd 47 bb b2 bd
       0.0059303674 0.060551763 -0.07463994 -0.087271266
000110 05 62 0e be b7 1f bf bd 30 d2 49 3d 98 de 0e be
       -0.13904579 -0.09332221 0.049272716 -0.139521
000120 59 74 e0 bd 84 b3 5f be 8b 9d d9 bd c9 79 dd bd
       -0.109596916 -0.21845824 -0.10625752 -0.10814244
000130 6a eb 7f bc 96 d2 b2 bd 5a 11 2e 3e 39 e7 58 3e
       -0.015620092 -0.08731572 0.16998807 0.21181954
000140 64 ad 84 be d7 3c 59 be 36 ea 04 3e 73 f2 1c 3e
       -0.25913537 -0.21214615 0.1297997 0.15326862
000150 65 64 ed 3d 81 71 77 be 06 78 d3 bd 66 ae 8b 3d
       0.11591414 -0.24164392 -0.10325627 0.06820373
000160 50 9b d4 bb 99 f4 cb 3d 7a 96 25 be 61 f4 75 bd
       -0.0064882413 0.09958763 -0.16170684 -0.06004751
000170 f3 ae 9c 3b be 80 28 3e c3 62 57 3d 61 38 f3 bc
       0.0047815978 0.16455361 0.05258442 -0.02968997
000180 67 71 b3 3d 33 2f c2 3d 40 ee 09 3e e9 a3 50 3e
       0.08761864 0.09481659 0.13469791 0.20375027
000190 a7 ec a3 be 09 5f 5f be 15 fe 6e be 20 19 70 3e
       -0.3201649 -0.21813597 -0.23339112 0.23447084
0001a0 ab d5 01 3f cd 17 f6 be 6e c8 a8 be 1a af a1 bc
       0.50716656 -0.48065034 -0.32965416 -0.019736815
0001b0 48 ec a9 3e b2 57 bc 3e b5 51 e1 be a1 71 72 be
       0.3318808 0.36785656 -0.4400765 -0.23676158
0001c0 dc 3b 23 3e 5c 64 67 3e e6 5b 3c bd 5b 4c d4 be
       0.15940803 0.22596878 -0.04598608 -0.41464505
0001d0 52 83 a8 bd 31 e0 26 3d b5 b5 f9 3b 6d 70 45 bb
       -0.08228172 0.04074115 0.007620538 -0.0030126825
0001e0 f5 3f a3 be fe ad b4 bc 30 07 f9 3d 95 f4 2a 3e
       -0.31884733 -0.022055622 0.12159574 0.16694863
0001f0 c6 27 14 be b2 6e 52 be d1 9d 17 be 58 14 ab bd
       -0.14468297 -0.2055004 -0.14806296 -0.0835349
000200 45 33 35 3e 31 b1 45 3e 7b 7f 77 3c 5a d1 86 bd
       0.17695339 0.19305874 0.015106077 -0.065828994
000210 ea c7 9f 3c ec aa cb 3c bd f5 13 3e de a0 ef 3d
       0.019504506 0.024861775 0.1444921 0.11700605
000220 3a 1c e5 3d ef b8 de bc f0 df e0 bd e7 47 97 be
       0.111870244 -0.027187793 -0.10980213 -0.29547045
000230 7f 5e bf bc f3 f0 cc 3d ac 24 0d be a5 bf 2c be
       -0.023360489 0.10006895 -0.1378352 -0.16869982
000240 5b 7d 43 be 61 88 38 bb c9 fb ae bd 1a f6 1e be
       -0.19090788 -0.002815746 -0.08544118 -0.15523568
000250 e4 fb 56 be 19 87 d7 bd cf 53 e9 3b 25 66 17 bd
       -0.20994526 -0.10523815 0.0071205865 -0.036962647
000260 9e 11 b5 3d 5a 0c 1a 3c c1 c2 95 bd b1 fa c1 3b
       0.08841251 0.009402359 -0.07312537 0.0059197773
000270 86 57 28 be 4d 78 d0 bc 35 47 6e bc a2 34 57 be
       -0.16439638 -0.025447989 -0.014543344 -0.21016172
000280 04 59 3e bd 00 ee 2e be b4 c0 13 be 77 ca b9 bd
       -0.04647161 -0.17082977 -0.14428979 -0.0907182
000290 31 e7 d8 bd f7 e2 16 be 65 3b 01 be 02 27 11 be
       -0.10590971 -0.14735018 -0.12620313 -0.14175037
0002a0 ee b8 08 bd 20 8e 5f bd 7f db 83 be 7b 70 81 be
       -0.033379488 -0.0545789 -0.257534 -0.25281128
0002b0 74 95 5f be 7a c7 02 be fd 06 76 be 6c ca e8 bd
       -0.21834356 -0.12771407 -0.24026103 -0.11366734
0002c0 1c 8c 8a 3d 2d a4 80 bd 68 6e a6 bd 5a 5e a7 bc
       0.06765005 -0.06281314 -0.08126527 -0.020430733
0002d0 32 a6 ce bd 51 48 9b 3e d4 f9 8f bd 42 a2 df 3d
       -0.10090293 0.3032861 -0.07030073 0.1091962
0002e0 a9 a3 f7 bb 14 8b 8b 3e 3f 83 13 3e 84 47 48 3e
       -0.0075573516 0.27254546 0.14405535 0.19558531
0002f0 bf de 83 3d 6a d2 02 3a 5d 04 d7 3e 4e 5d a8 bd
       0.0643897 0.00049904606 0.41995516 -0.082209215
000300 93 da 02 3f a6 65 f5 bd 2d 12 35 3e 63 35 9c 3d
       0.5111477 -0.119822785 0.17682715 0.0762737
000310 81 9c 1e 3e 11 48 10 3e 4c b8 6d 3e 26 50 87 3c
       0.15489389 0.14089991 0.23214835 0.01651771
000320 21 05 36 bc 53 08 e2 bd 3e 81 c7 3c 5b 38 88 bd
       -0.011109621 -0.11036744 0.02435362 -0.06651374
000330 7d c6 27 be e4 ee 71 bd b3 81 30 be 50 f3 a3 bd
       -0.16384311 -0.059065714 -0.17236976 -0.080053926
000340 5b 5c 03 be 5b 93 b3 3c 7b b1 a5 bd 8b 68 7a bd
       -0.128282 0.02192085 -0.08090492 -0.061134856
000350 24 d5 96 bd 53 50 14 3d 82 82 8e 3c f5 e0 16 be
       -0.07364872 0.036209416 0.017396215 -0.14734252
000360 50 41 a3 3d d0 92 0d be 81 af d2 3d 34 39 4c be
       0.07971442 -0.13825536 0.10287381 -0.19943696
000370 6a 24 2c be 08 89 20 3e 36 bc b7 3d aa cc 50 3e
       -0.16810766 0.15677273 0.08971445 0.20390573
000380 5a 0f 70 bc 4f ed a4 3d b1 67 7f bd 21 5d 80 bd
       -0.014652098 0.080530755 -0.062354747 -0.06267763
000390 95 f8 83 bd e0 9a dc bd f8 00 3c bc a7 c8 9b bd
       -0.06443898 -0.107717276 -0.01147484 -0.07606631
0003a0 95 e3 36 be 1a 41 da bd df 52 d7 ba 52 71 cf bd
       -0.17860253 -0.106569484 -0.0016427896 -0.10129036
0003b0 67 cd ec 3d b6 4e a8 bd 27 5d a9 be ee 5d 9e bd
       0.11562615 -0.08218138 -0.33078882 -0.077327594
0003c0 5e 34 a6 bc ae 59 14 be a8 2d 03 be 9e a6 57 be
       -0.020288642 -0.14487335 -0.12810385 -0.21059653
0003d0 8f 04 78 be 66 95 48 3e b6 37 2c be ca e9 e7 bd
       -0.24220489 0.19588241 -0.16818127 -0.113238886
0003e0 f6 59 70 be 19 46 c8 bd 57 aa b9 bd 74 d3 e3 3d
       -0.23471817 -0.09778995 -0.09065693 0.11124316
0003f0 d9 db 88 bd a4 ef 3a 3e dd c2 5e 3d c7 cc 19 3e
       -0.066825576 0.18255478 0.054385055 0.15019523

conv2.bias f4 [16]
000000 13 de 4c 3f 01 88 ac 3f 09 5b 2b be d4 fd eb be
       0.8002636 1.3479005 -0.16733946 -0.46092093
000010 ba 4b 58 3e ae 47 18 3f 20 fe 1a bf 52 dd 04 bf
       0.21122637 0.59484375 -0.60544014 -0.5190021
000020 84 3e 91 bf 82 80 42 3f 9a 7b 94 3e 49 aa 23 bf
       -1.1347203 0.7597734 0.2900055 -0.6393171
000030 13 4a 26 3e 94 35 aa 3e d0 2d 4d 3d 74 86 59 3f
       0.16239195 0.33244002 0.05009252 0.84970784

fc1.weight f4 [120, 400]
000000 29 39 ad 3c 33 71 05 bd 06 3d 31 bd d1 9d 88 3d
       0.02114542 -0.03257866 -0.043271087 0.06670726
000010 07 e3 c0 3d 6f 20 b9 3c 0e 37 a3 bd db 04 d7 bc
       0.09418302 0.022598473 -0.07969485 -0.026247432
000020 da ad 37 bc 02 ec a1 3d cb 97 35 bc 63 5e 8a bd
       -0.011210883 0.07906343 -0.011083554 -0.06756284
000030 4b 7b 3f bd 8c de ab bc 40 4b 9c 3d 2f e2 30 3d
       -0.04674844 -0.020980142 0.0763154 0.043184455
000040 d8 78 33 bd 0b 84 33 3d 55 2a 08 bd 9b 13 c2 3d
       -0.043816417 0.043827098 -0.033243496 0.09476396
000050 f5 b6 75 bc 5c 9b de bc 20 3f 7f bd 8a 8c 10 bd
       -0.014997234 -0.02717369 -0.06231606 -0.03529028
000060 a6 b7 32 bd c7 92 77 3d e4 f8 ce bc 2c c6 0f bc
       -0.043632172 0.060442712 -0.025265165 -0.008775275
000070 a4 51 ba bc 95 a1 10 bd fa 35 a4 3c a1 dd f1 bc
       -0.022744007 -0.035310347 0.02004527 -0.029524626
000080 57 bb 62 3d ed b4 69 3d 4f fb 24 bd e7 2d ae 3d
       0.055354442 0.05705731 -0.04027873 0.08504849
000090 19 b1 c0 3d df 1b 42 3d 6b 6a 55 3d c8 35 49 bd
       0.09408779 0.04738986 0.05210344 -0.049123555
0000a0 ea de 97 bd d1 12 31 3c 93 47 6f bd e5 b4 3d bd
       -0.07415564 0.010807709 -0.058417868 -0.046315093
0000b0 f9 b2 e4 bb a7 47 92 bd 2e 7a 7d bd f5 46 21 bd
       -0.006979343 -0.07142573 -0.061884098 -0.03937431
0000c0 bd 7d dd bd f1 03 17 3d a4 fd eb bc 70 74 95 3c
       -0.10814998 0.036868993 -0.028807469 0.018243998
0000d0 fa a2 98 3b 9d e0 12 3d d3 6d e5 bc 95 0f 04 3d
       0.0046581 0.03585874 -0.02800647 0.032241423
0000e0 29 3b c5 3c f5 a4 9f bc 4a bb 9c bc a6 d9 5f 3d
       0.024076061 -0.019487837 -0.019132275 0.054650925
0000f0 78 f1 10 bd e6 2c 8b bb e9 72 f8 3c 24 81 75 bd
       -0.035386533 -0.0042472957 0.030328231 -0.05993761
000100 78 db 26 3c c1 02 e7 3d c9 d9 e1 3d fe 08 28 3d
       0.010184161 0.11279822 0.11027867 0.0410242
000110 ea ac a4 bc 1d 79 af bc 54 3a bd bc 23 8b 0d 3d
       -0.020101983 -0.021420056 -0.023099102 0.03455652
000120 5d c2 1c bc 82 6f 79 bd 8b 02 4c 3d 77 c1 89 bd
       -0.009567824 -0.060897358 0.049807113 -0.067263536
000130 31 55 7d bd 46 03 e2 bd 6d dd a5 bd eb 42 a0 bc
       -0.061848823 -0.110357806 -0.08098874 -0.019563159
000140 aa 05 86 bd 7e 4d 4f bd 23 54 c9 bd 49 ff 8a bd
       -0.06544049 -0.05061101 -0.09830501 -0.06786973
000150 de 58 73 bc 16 f2 f3 bb fc 8c e0 bd 28 fa 05 bd
       -0.014852731 -0.0074446304 -0.10964391 -0.03270927
000160 9f 0d b4 3a 2c ee fc bc 83 7d e1 bd f0 45 cb bd
       0.001373697 -0.030875288 -0.110102676 -0.09925449
000170 9e 0d 66 bc b7 9c 5d 3d a3 d0 d9 3c 16 ad 0e 3c
       -0.0140413325 0.054104533 0.026588744 0.008708259
000180 6c d8 f5 bc 82 fc db bd 03 46 13 bd fd 4d 92 3c
       -0.030010425 -0.107415214 -0.03595544 0.017859453
000190 85 af 5c bd 56 10 e3 bc 69 26 a1 3a 48 24 e3 bd
       -0.053878326 -0.02771775 0.0012294772 -0.110909045
0001a0 8d 8d 74 3d 46 f4 89 bd 17 af b5 3a 59 13 b4 3d
       0.059705306 -0.067360446 0.0013861385 0.08792753
0001b0 25 9d 5a 3c 3e 7c f7 3c 2f e0 b8 bd 17 48 bf 3c
       0.01334313 0.03021061 -0.090271346 0.023349805
0001c0 22 48 97 3d 04 96 d3 3d 2b e3 28 bc 19 7d 8e bd
       0.07386805 0.103313476 -0.010308067 -0.06957454
0001d0 f2 8b f3 3c 79 95 ba 3c 9b 85 0b bb a1 53 72 bd
       0.029729817 0.022776352 -0.0021289352 -0.059161786
0001e0 19 ef 0f be 57 16 45 bd 6f 49 7f 3c cd e2 5c 3c
       -0.14056052 -0.048117008 0.015581473 0.013481808
0001f0 1a a5 34 bd d6 e9 cd bc d4 4d 4e bd bd 8f 89 bc
       -0.044102766 -0.025135916 -0.05036719 -0.016792173
000200 00 ec eb bc 68 21 bf bd de fe 86 bd 1c 12 ec 3c
       -0.028799057 -0.093325436 -0.06591581 0.028817229
000210 d5 b1 5c 3d 16 2b 90 bb 12 71 7d 3b d6 b1 5f bc
       0.05388053 -0.0043996675 0.0038672131 -0.013653239
000220 4e bf 64 bc 42 c0 d8 3d 1e 68 c8 3c 15 b2 b4 3c
       -0.013961626 0.10583545 0.02446371 0.022057572
000230 9a d2 3b bd 2b 7d d8 3d ca a7 c9 3d 01 f5 e5 3b
       -0.045855142 0.10570749 0.09846456 0.007017732
000240 a0 fd 28 3d 89 aa 9f bd f5 44 ee 3b a9 6b 78 3d
       0.0412575 -0.07796199 0.007271404 0.060649548
000250 c0 27 c1 bb ed 46 af bd cd bf e9 bc d3 42 cf ba
       -0.005894631 -0.0855845 -0.02853384 -0.0015812762
000260 11 5c e8 3a 5b ee 9b bc d8 5b 56 3d 98 36 dc bd
       0.0017727633 -0.019034555 0.052333683 -0.107526004
000270 0a 81 de bd 27 f1 16 bd 99 60 a4 bc d7 72 85 3d
       -0.10864456 -0.036851075 -0.020065593 0.065160446
000280 1d ff 17 3a 8b df 64 bd cc e7 d7 3c 4b f7 97 bc
       0.0005798208 -0.05587725 0.026355647 -0.018550536
000290 76 64 29 3d d4 21 a1 3b 99 8c 00 ba dd 09 4e bd
       0.041355573 0.0049173627 -0.0004903763 -0.050302375
0002a0 77 f6 73 bd 2e f2 a2 bc 61 6f 72 bd d6 49 08 3d
       -0.05956122 -0.01989087 -0.05918825 0.03327354
0002b0 6b 2d 88 3c 3e bb aa bd 10 2c 8d bd 96 cd 5d 3e
       0.01662322 -0.08336495 -0.0689317 0.21660456
0002c0 51 3c b2 bd 27 20 ae bd ff c9 1e 3c 9f e8 50 3d
       -0.08702911 -0.08502226 0.009691714 0.051003095
0002d0 54 48 09 3e ea a2 bc bb 7a e6 ef 3c 1d bc 15 3c
       0.13406497 -0.0057567256 0.029284704 0.009139088
0002e0 8c 78 08 3d 88 1b ac 3d 32 01 2f bd 54 2c 1d bd
       0.033318087 0.08403689 -0.04272575 -0.038372353
0002f0 ba 8a 80 bd e2 21 68 bd f2 91 9e 3d 85 76 e9 3c
       -0.0627646 -0.05667294 0.077426806 0.028498897
000300 a0 87 42 bc b4 2a 67 bd 93 ee 90 3d f2 b6 69 bd
       -0.011873156 -0.05643721 0.070767544 -0.057059236
000310 41 2a fd ba ef 5e d2 bc a3 ac 9d bd e9 77 1a 3e
       -0.0019314961 -0.025680033 -0.076989435 0.15084805
000320 b5 12 36 bc 1e 36 e6 bc d9 7b e2 bd bd 21 a8 bd
       -0.011112859 -0.028101977 -0.11058778 -0.0820956
000330 6f 22 41 be 03 00 a0 3d 74 c6 a7 3c 21 7c 4e bd
       -0.18860792 0.07812502 0.020480372 -0.050411347
000340 51 b2 60 bd 57 72 66 3c de f7 72 3d c6 4c 88 3c
       -0.054857556 0.014065347 0.059318416 0.01663817
000350 35 c1 22 3d 79 9e a9 bd 63 64 0d 3e af 44 11 3d
       0.039735038 -0.082821794 0.13807826 0.035465892
000360 59 61 37 3d 5b e2 73 3d 75 cc 1e 3d d7 40 ee 3d
       0.044770572 0.05954204 0.038769204 0.11633461
000370 4f ad e8 3d 28 53 35 3d 7f 98 c0 3c 11 71 91 3d
       0.11361181 0.044268757 0.023510216 0.07101644
000380 93 3f 7c 3d 84 a4 75 bd 55 6f 65 bd 74 42 7c bd
       0.061584067 -0.059971347 -0.056014378 -0.061586812
000390 e8 c7 ed bc 39 f6 3f bd 65 fe a6 bd 10 9a 8c bc
       -0.029025987 -0.046865676 -0.08153991 -0.017163306
0003a0 ef af a1 bc 19 ce 28 3d c6 61 31 3d a7 7c 05 3d
       -0.019737212 0.041212175 0.043306135 0.03258958
0003b0 58 70 ea 3d 76 11 34 3d 6b 89 e4 3b 9d 77 9e bd
       0.11447209 0.043961965 0.0069743893 -0.07737658
0003c0 b7 cd 24 bd a8 81 d2 b9 47 bf ef 3c a6 5f 52 3c
       -0.040235247 -0.00040150923 0.029266013 0.012840187
0003d0 86 07 49 bd d1 24 8d 3d e0 4b 28 bc 9c c7 12 3d
       -0.04907944 0.06891788 -0.010271996 0.035834894
0003e0 62 e4 da bc ad 9a 1c bd d2 e9 a0 b9 6b 24 3f bd
       -0.02672023 -0.038233448 -0.00030691788 -0.04666559
0003f0 08 fe 9d bb 8a 0d e6 3d 9f 92 05 3c a5 52 89 bd
       -0.0048215427 0.11233051 0.008152633 -0.06705216

fc1.bias f4 [120]
000000 a4 90 85 3c 2a f7 99 3c 76 89 15 3e a7 71 55 3e
       0.016304322 0.018794615 0.14603218 0.20844136
000010 96 ac 0f 3d d7 2f 1d bd 7c b3 4f 3e 09 ae 13 3d
       0.0350767 -0.0383757 0.20283312 0.036054645
000020 9f 72 eb 3d 55 46 be 3d d0 ba 89 bd 72 c2 95 3d
       0.114964716 0.092907585 -0.06725085 0.07312478
000030 24 07 31 ba a2 72 ab bc 0e 17 9e 3d fc db ab 3e
       -0.0006753078 -0.020928685 0.07719241 0.33566272
000040 ab 8b 0d 3e d5 73 e2 3e ea ca 39 3e b0 27 fd 3d
       0.1382281 0.44228998 0.18143812 0.123610854
000050 e7 29 2e 3d 9f 65 9a bc 3f 09 d5 bc 23 b5 45 be
       0.04252043 -0.018847285 -0.026005385 -0.1930738
000060 6c c8 c5 3d 69 88 c2 bc 59 14 e6 3d 4c 34 c9 3d
       0.09657368 -0.023746686 0.1123435 0.09824428
000070 8d 6f 43 3c 96 cc 5e 3e 84 96 ff 3d 93 8e ab bd
       0.011928451 0.21757731 0.124798805 -0.08376803
000080 45 f5 ad 3d eb 8e 70 3e c5 4c 46 3e 6a 13 ea bc
       0.08494047 0.23492019 0.19365223 -0.02857371
000090 10 66 5c be b3 20 74 3e 40 2c 12 bd 90 2c 23 3e
       -0.21523309 0.23840599 -0.03568673 0.15934968
0000a0 7f 03 52 be 11 e9 c4 3d e7 09 9b 3d ca d7 b0 bd
       -0.20509146 0.096147664 0.07570248 -0.086349085
0000b0 a7 56 5f 3d 02 21 fd 3c 31 ce d9 bd 51 25 14 bd
       0.054525997 0.030899528 -0.10635031 -0.0361684
0000c0 0b 13 61 3e b1 f9 13 bb 13 13 2b be 3b ee 1c 3d
       0.2197992 -0.0022579248 -0.16706495 0.03831313
0000d0 c5 01 9e 3c 12 e2 ba 3d f9 3f 82 bc 30 20 12 3d
       0.019287953 0.09125151 -0.015899645 0.035675228
0000e0 07 29 fa 3d 22 e7 99 3c d0 b1 47 3e 15 1b 8a be
       0.122148566 0.01878697 0.19501424 -0.26973787
0000f0 57 d6 2a 3e a5 a8 29 3e da cd e9 3c 48 32 2d 3d
       0.16683327 0.16568239 0.02854054 0.04228428
000100 06 90 87 bd d1 ae 01 3d 27 88 4c 3c 7e 3d 46 bd
       -0.06619267 0.03166086 0.012483633 -0.048398487
000110 d8 9e 7a bc 02 85 2a be 2d 63 d1 3c 41 ab 7f 3d
       -0.01529666 -0.16652301 0.025559986 0.06241918
000120 f1 91 1b 3e 09 40 f7 3c 5b b2 a7 bd f5 ea 0f bd
       0.15192391 0.030181902 -0.081883155 -0.03513618
000130 04 ce b0 3d 66 a8 dd 3d bd e3 08 be bd 2a 39 bc
       0.08633044 0.10823135 -0.13368125 -0.0113016935
000140 c7 92 15 3e 75 52 11 3d f7 15 e1 3d 17 0f 08 3e
       0.14606772 0.035479028 0.109905176 0.13287006
000150 d8 61 0b 3d 18 26 26 3e 3e 61 33 3c c8 a0 13 3d
       0.034028858 0.16225469 0.010948477 0.036042005
000160 fd 6b 2d 3d bd f3 2c bd f6 cf 11 3d 56 d4 af 3d
       0.042339314 -0.042224634 0.035598718 0.08585422
000170 fd f4 0d be 88 7c 13 3d b2 a6 23 3e 2d 3a 17 3d
       -0.13862987 0.036007434 0.15981558 0.036920715
000180 85 a0 9d bc b2 b6 e4 3d 8a e8 2c 3e 24 1b d0 bc
       -0.01924158 0.11167659 0.16885582 -0.025403567
000190 ff 06 1e 3d 65 7d c9 3d 06 f2 00 3d 98 12 1b 3d
       0.03858089 0.0983837 0.03148081 0.03785953
0001a0 87 de 18 3c 8d 26 3f 3e 20 e4 41 be a8 85 c4 3c
       0.009330398 0.1866705 -0.18934679 0.023989514
0001b0 6f 78 ed 3d 9b 9e 9e bd b4 ce 7c 3e 7b 53 1e bd
       0.115952365 -0.07745095 0.24688226 -0.038653832
0001c0 0e a8 3c bd 7a 14 01 3e 52 20 ef 3d 88 ea dd 3b
       -0.046058707 0.12605467 0.116760865 0.006772343
0001d0 32 7e 98 bd b4 6d d3 3e 5e 1c 7b 3e d2 04 32 3d
       -0.07445945 0.41294634 0.2452254 0.04346163

fc2.weight f4 [10, 120]
000000 e7 fc 23 3e dd 29 74 bd ed 49 23 3e 4a af 77 3e
       0.16014443 -0.059610236 0.15946169 0.24187961
000010 61 07 45 bd 2a 2c 07 be 9c 61 a0 be 18 27 8e bd
       -0.04810274 -0.13200441 -0.3132447 -0.0694105
000020 c4 18 3a 3d e9 81 f1 bd 98 ad 07 3e 6f b2 dc bd
       0.045433775 -0.117923565 0.13249815 -0.10776221
000030 ad a1 1d 3e 82 e4 3c 3e 1b cb 50 3e 26 7a df bd
       0.15393706 0.18446544 0.20389979 -0.1091197
000040 62 aa 30 bc bf f2 9b be f6 10 c1 3d 18 4c 31 bd
       -0.01078281 -0.30458638 0.09427063 -0.04328546
000050 4a 45 13 3e 18 f0 db bd 52 6b 5b 3d f8 2a 2e 3e
       0.143819 -0.107391536 0.053569146 0.17008579
000060 e5 08 f6 bc 93 40 4f be ab af 7a 3e 20 ce f9 bc
       -0.030033538 -0.20239477 0.24481075 -0.030493796
000070 2f b3 85 3e b7 1b 74 bd 2b 4f 07 3e 8f 99 17 3e
       0.2611327 -0.059596743 0.13213794 0.14804672
000080 87 a8 7e 3d 10 61 b4 3d 18 ba 0c be 87 69 4f bb
       0.06217244 0.08807576 -0.13742864 -0.0031648593
000090 01 1c 6b 3d 2e e1 75 3e 7b 60 f7 3d 5e fc 56 3e
       0.057399753 0.2401168 0.12078949 0.20994708
0000a0 d5 1e 12 be 5a e8 64 3e 9b c7 1b 3e 42 aa 3c bb
       -0.14269574 0.2235426 0.15212862 -0.0028788005
0000b0 9d 67 49 3d 9b 58 00 3e 3e 2c 30 3e c7 21 2a 3e
       0.04917108 0.125338 0.17204377 0.16614448
0000c0 80 66 c0 3d 70 46 4d 3e 8b 81 0f bc 8c f0 c9 3d
       0.0939455 0.20046401 -0.008758913 0.09860334
0000d0 d8 4a 83 bd fb 80 88 3d 00 2a f5 bc d1 22 f4 3d
       -0.0641076 0.06665226 -0.029927254 0.11920703
0000e0 3e 5f d0 bc b6 bd 24 3e 3d e8 be bc 4a 8c 3c 3e
       -0.02543604 0.16087994 -0.0233041 0.18412891
0000f0 b5 7b 14 be d7 ed 36 be f7 94 91 3e 93 83 ab 3e
       -0.14500315 -0.17864166 0.28433964 0.3349882
000100 1f 1e 3a 3e 59 21 5a 3e f1 93 81 3d 2a a6 a7 3d
       0.18175553 0.21301784 0.06327046 0.0818599
000110 99 03 19 be e5 85 26 3e a0 ed 89 bd 8b 99 a1 3d
       -0.14942779 0.16262014 -0.067347765 0.07890614
000120 75 99 20 bd ce ea 80 3d 25 b9 68 3d 31 85 a1 3e
       -0.039208848 0.062947854 0.056817193 0.3154693
000130 34 13 8d be 5b fd 60 bd 59 63 11 3e eb e8 3d be
       -0.27553713 -0.05492912 0.14198054 -0.18545882
000140 cd 2d b1 3d e1 87 a3 3d 9f 55 f8 bd 1c 98 37 3e
       0.08651314 0.07984901 -0.12125706 0.17929119
000150 48 48 0e 3e 9b 92 01 be 47 cd 47 3d 29 8f c6 bd
       0.1389476 -0.12653582 0.048779752 -0.096952744
000160 2a b3 85 3e c1 cf 6b be 8e 50 1b bd 10 36 65 bd
       0.26113254 -0.2302847 -0.03791862 -0.05595976
000170 68 ae 2a bd 61 55 6e 3d d9 0f 12 be 2c d0 ae bd
       -0.041670233 0.058186892 -0.14263858 -0.085357994
000180 67 65 d8 3d bd 39 a0 3e f0 f2 9e 3e f4 e6 6c 3e
       0.10566216 0.3129405 0.31044722 0.23134977
000190 5f fc 8f 3e b2 17 ce bd de c8 45 bd c1 ac c4 bc
       0.2812223 -0.10063113 -0.048287265 -0.024008157
0001a0 5c 58 7e 3c 8d 9c 81 bd fd 8e 73 3e 1a 6d 70 3d
       0.015523996 -0.06328688 0.23785014 0.058697797
0001b0 bf 66 29 be c5 51 18 3e 19 37 44 be be 48 82 3e
       -0.16543101 0.14874943 -0.19161643 0.25446123
0001c0 3d 4c 69 bd d6 bb 44 3e 27 fe 2c 3e 48 e5 84 3e
       -0.056957472 0.19212279 0.16893826 0.25956178
0001d0 a4 a9 83 bb ce ea b0 3b a5 e1 fc 3d 80 fb 11 be
       -0.0040180255 0.0053990846 0.12347726 -0.14256096
0001e0 9c 9e 99 3d c8 a6 33 be da 8b e5 bd e5 e3 a5 bc
       0.075009555 -0.17544091 -0.11208315 -0.02025027
0001f0 de 4b bf bd 3f 31 fc 3c 62 2a fc 3d 89 2c 49 be
       -0.093406424 0.030785201 0.123127714 -0.19645895
000200 8a c2 9f 3e 25 21 70 3c 9c d4 29 be 2a b2 18 be
       0.3120311 0.01465634 -0.1658501 -0.14911714
000210 11 5f 90 be 0f 3d 00 bd 9c 8c b0 3d ca 29 7e bd
       -0.2819753 -0.03130823 0.08620569 -0.062051572
000220 6b 9c 41 be e6 20 b3 3d 7f 9f 2c 3e cd 07 e6 3d
       -0.18907325 0.08746509 0.16857718 0.11231957
000230 a3 bf 7a bd e2 78 a2 3b 8f 95 86 3d 77 af df 3d
       -0.061217915 0.004958258 0.06571495 0.10922139
000240 4b 83 11 bd 5a 93 7a 3d 7b 7b 8f 3e ac 19 3a 3e
       -0.0355256 0.06117568 0.28023896 0.18173856
000250 18 ad 09 be 64 58 cc 3d c3 f6 f7 3d 3a c1 08 bd
       -0.13444936 0.09977797 0.12107613 -0.0333874
000260 9a 9e 40 be db dd e0 bd f1 c5 09 3e 19 cf 2a 3e
       -0.18810502 -0.109798156 0.13454415 0.16680564
000270 9f 52 99 3e 6e 53 99 bd 90 76 ab 3e 8d 26 32 be
       0.29945847 -0.07486616 0.33488894 -0.17397518
000280 c7 c6 45 3d 87 53 3d 3c bc e8 0f be 80 be f0 3e
       0.048285272 0.011555559 -0.14053625 0.4702034
000290 50 09 76 be 4d 87 36 bd 62 b0 69 3e 3c 14 d3 3d
       -0.2402699 -0.044562627 0.22821191 0.10306594
0002a0 da ec 31 be dd 2f 88 3e 33 79 75 3e d3 12 3c bd
       -0.17375508 0.26599017 0.23972015 -0.04591639
0002b0 04 1b 92 3c 8d f2 93 be 7f db 46 3e bb b5 26 be
       0.017835148 -0.2889599 0.19419669 -0.16280262
0002c0 7f 06 2a be 36 dc de 3e 60 0f b1 bc 55 60 60 3e
       -0.1660404 0.43527383 -0.021613777 0.21911748
0002d0 f2 71 39 be 85 47 9f bc 79 6c a5 3d fc c8 cd 3d
       -0.18109873 -0.019443283 0.0807733 0.100481
0002e0 45 09 21 3d ef a8 d2 3d 8b 63 04 3e b4 67 59 3d
       0.03931548 0.10286128 0.12928598 0.053077415
0002f0 3a b3 8a 3e d4 b6 57 bd f0 d5 42 3c 78 be d1 3c
       0.27089864 -0.052664593 0.011891827 0.025603518
000300 c7 d9 f6 3d c0 f6 54 be 53 cd 93 3c 6a e2 9e 3d
       0.120532565 -0.20797253 0.018042242 0.07758029
000310 1c d9 93 be 06 7d 27 3e 11 0e 5b bd 13 7f 4c 3e
       -0.2887658 0.16356286 -0.05348021 0.1997035
000320 87 dc 55 3c c8 be c2 bc f2 b2 7b be 35 b7 84 3e
       0.013053066 -0.023772612 -0.24579981 0.25921026
000330 f9 d5 0f 3e 73 99 47 be d4 bb 5e 3d cb 1b 0c be
       0.14046468 -0.1949213 0.054378346 -0.13682477
000340 06 61 81 bc 88 19 0f 3c 1a c2 5e 3d d6 ba 23 3e
       -0.015793335 0.0087341145 0.05438433 0.15989241
000350 48 2b c7 3e c3 2d af 3d 09 9c 20 be f4 72 ea 3e
       0.38900208 0.0855365 -0.15684523 0.45790827
000360 36 62 7a 3e e2 c4 d1 bd 31 5a 08 bc 2b 92 af 3d
       0.24451527 -0.102426305 -0.008322285 0.08572801
000370 fa a2 c1 bd a6 b4 21 be 46 bf 06 be 40 63 88 bd
       -0.094549134 -0.15791568 -0.13158903 -0.066595554
000380 2b 2a 89 3d cb 35 97 3e 81 fd af 3d 6b 3f 2e 3d
       0.06697496 0.29533228 0.08593274 0.04254095
000390 44 af 30 3d 67 cc 7c bd 21 83 28 3d cd a9 58 bd
       0.043135896 -0.06171837 0.04114068 -0.05289631
0003a0 7a b6 3c be 21 92 0e 3d 7a 09 fd bd 03 53 47 3e
       -0.18428984 0.034807328 -0.12355323 0.1946526
0003b0 a7 39 82 be 23 ac 97 3b 3e 4a 52 bd 87 8c 29 3c
       -0.2543461 0.0046286746 -0.051340334 0.010348446
0003c0 2e b3 45 3e 64 51 a8 bd 57 1f 96 3e cc c9 ab 3e
       0.19306633 -0.08218649 0.29320785 0.33552396
0003d0 a0 d2 df bd 09 57 de bd ca 0f a6 3d ae 31 02 be
       -0.109288454 -0.108564444 0.0810848 -0.12714264
0003e0 cb 6b 07 be cf c4 dc 3d a6 4c 42 3e c3 4b 08 be
       -0.13224714 0.10779726 0.18974552 -0.13310151
0003f0 19 ae 3b 3e 6a fd c4 3e 94 e3 36 3e bc 02 b3 3c
       0.18328132 0.3847459 0.17860252 0.02185189

fc2.bias f4 [10]
000000 26 53 81 be 0a 9d d5 be c2 88 c6 3c e4 c6 36 3f
       -0.2525875 -0.41721374 0.024235133 0.71397233
000010 75 d4 32 3f b4 7d 25 3e 3f 15 ef 3e df e7 8d be
       0.69855434 0.16161233 0.46695897 -0.27715966
000020 c4 3f 28 3f 47 59 28 be
       0.657223 -0.16440307
